M4-Deep-learning/02/pytorch_ff.pt (torch, 361303 bytes, 6 tensors)

weight f4 [100, 784]
0	0xbc16942e	-0.009190602
1	0x3cc8316c	0.024437629
2	0x3c357254	0.011074621
3	0xbccb1ac3	-0.024793034
4	0x3cc11932	0.023571584
5	0xbd0e65ae	-0.034764938
6	0x3c48b1e8	0.012249447
7	0xbcf7e383	-0.030259853
8	0xbc809760	-0.015697181
9	0x3c683bc8	0.014174409
10	0x3c7f57e4	0.01558492
11	0x3d016d69	0.031598482
12	0xbcd82ee4	-0.026389547
13	0xbc8aa792	-0.016925607
14	0x3d4f2567	0.05057278
15	0x3c62e989	0.013849624
16	0xbb2ecfa0	-0.0026674047
17	0xbc476a8a	-0.012171397
18	0x3d0c6289	0.034273658
19	0xbc5cf020	-0.013484985
20	0xbc95159a	-0.018198777
21	0xbb5f8970	-0.0034109019
22	0x3cb1a9c8	0.021687403
23	0xbb97c538	-0.0046316646
24	0xbce4a7b5	-0.027912
25	0x3cabed40	0.020987153
26	0xbcbfb26e	-0.023400512
27	0xbca26c47	-0.019827021
28	0x3c0e8f80	0.008701205
29	0x3c13b700	0.009015799
30	0x3bc99e78	0.006152924
31	0x3c855f64	0.016280837
32	0xbd327c74	-0.04357572
33	0xbc6b3c73	-0.014357674
34	0xbdc20abf	-0.09474706
35	0xbdaa856e	-0.08326231
36	0xbd969df1	-0.07354344
37	0xbdb3efaa	-0.08785947
38	0xbda9a1f3	-0.082828425
39	0xbd7a54f6	-0.06111618
40	0xbc9f2d2e	-0.019430723
41	0xbd2977a3	-0.04137386
42	0xbcb030c0	-0.02150762
43	0xbc8fd267	-0.017556382
44	0x3cee38a9	0.029079752
45	0x3a0adb02	0.0005296917
46	0xbd85f215	-0.06540314
47	0xbddad3be	-0.10684918
48	0xbd5f5e0c	-0.05453305
49	0xbd9bd6f0	-0.076093554
50	0xbd8512db	-0.06497737
51	0xbcd6741f	-0.026178418
52	0x3cdeface	0.027219202
53	0x3b7b91d0	0.0038386472
54	0x3c22d0a0	0.009937435
55	0x3c57c5c0	0.013169706
56	0xbc94f3e5	-0.018182704
57	0xbd0296b2	-0.031881995
58	0xbce85e02	-0.028365139
59	0x3c971dbb	0.018446794
60	0xbce2f971	-0.027706834
61	0xbd99a5de	-0.0750234
62	0xbd8ca5f4	-0.068675905
63	0xbd8de00b	-0.069274984
64	0xbe0e0277	-0.13868128
65	0xbdbc47e1	-0.09193397
66	0xbdc8fbb1	-0.09813631
67	0xbdc7590e	-0.09733783
68	0xbd87e6f1	-0.066358455
69	0xbd470cd0	-0.048596203
70	0xbdc3ca9f	-0.09560131
71	0xbdf05cb9	-0.117364354
72	0xbdae5856	-0.085129425
73	0xbd049ea3	-0.03237785
74	0xbdbc70d4	-0.09201208
75	0xbd912b15	-0.07088295
76	0xbde41986	-0.11137681
77	0xbe177618	-0.14791143
78	0xbe0c2f4a	-0.13689914
79	0xbe0a8999	-0.13529052
80	0x3ce1cef2	0.0275645
81	0x3d0eab5f	0.0348314
82	0xbbc4219c	-0.005985452
83	0xbcb1f6fc	-0.021724217
84	0xbb800930	-0.0039073452
85	0x3ba44550	0.0050131455
86	0xbc3a6655	-0.011376937
87	0x3c644587	0.013932592
88	0x3b313b21	0.00270433
89	0xbd1ceef4	-0.03831382
90	0xbdc9b35a	-0.09848662
91	0xbda1ed3c	-0.07906577
92	0xbdc29784	-0.095015556
93	0xbd8cc93b	-0.06874319
94	0xbdde1161	-0.108431585
95	0xbd6ed914	-0.05831249
96	0xbd5fdff8	-0.054656953
97	0xbd330442	-0.043705232
98	0xbd79b805	-0.06096651
99	0xbccde6dd	-0.025134498
100	0xbd39734f	-0.045275982
101	0xbd0eabf6	-0.034831963
102	0xbd74d557	-0.05977377
103	0xbd3a2580	-0.04544592
104	0xbd7a157c	-0.061055645
105	0xbc819903	-0.015820032
106	0xbce49775	-0.027904252
107	0xbd68ba60	-0.056818366
108	0xbca986f9	-0.020694243
109	0x3cdbf8ab	0.026851973
110	0x3cc79869	0.024364667
111	0x3c8247fe	0.01590347
112	0x3d0ef56f	0.034902032
113	0x3cffbb84	0.031217344
114	0xbc9a9dcb	-0.01887407
115	0xbcca02c1	-0.024659516
116	0xbd5a0bbd	-0.05323385
117	0xbda4065b	-0.08009025
118	0xbdb2b87e	-0.08726595
119	0xbcd6db6c	-0.026227675
120	0xbd402f87	-0.046920326
121	0xbcfd631c	-0.030931048
122	0xbd0b1261	-0.033953074
123	0xbc96538d	-0.018350387
124	0xbd8f4a6e	-0.06996618
125	0xbd1299ea	-0.035791315
126	0x3c464bdb	0.012103046
127	0x3d0adcf7	0.033902135
128	0xbcb38d87	-0.021918071
129	0x3b1391f2	0.002251741
130	0x3af999bd	0.001904301
131	0xbcb5c760	-0.022189796
132	0xbcd4009a	-0.025879193
133	0xbd8ce3c2	-0.06879379
134	0xbb364747	-0.002781348
135	0xbcedfe2a	-0.029051859
136	0x3d29500c	0.041336104
137	0x3d2f8c1c	0.042858228
138	0x3b9ae33b	0.004726795
139	0xbd0fdae5	-0.035120863
140	0xbceeed63	-0.02916593
141	0x3c98201c	0.018569998
142	0xbd2a46ff	-0.041571613
143	0x3c5b05e8	0.013368107
144	0xbdbb074a	-0.0913225
145	0xbd7ec94f	-0.0622037
146	0xbc38c15a	-0.011276567
147	0xbcc717dd	-0.024303371
148	0xbc750377	-0.014954439
149	0xbd7de956	-0.061990105
150	0xbd21e6e8	-0.03952685
151	0xbcfc670f	-0.03081086
152	0xbd4315b7	-0.04762813
153	0xbb95efe8	-0.004575718
154	0xbd2e436d	-0.04254477
155	0xbc90ac0b	-0.017660161
156	0x3a0cb74a	0.00053678884
157	0xbb96b969	-0.0045997393
158	0x3cbd968c	0.023143075
159	0xbca233d5	-0.019800106
160	0xbcf51c50	-0.029920727
161	0xbc98d44a	-0.018655915
162	0x3d29caac	0.04145305
163	0xbc1bce95	-0.009509702
164	0xbb6a4068	-0.0035743956
165	0xbc093ebe	-0.008376775
166	0xbd331dc2	-0.04372955
167	0xbd3f4874	-0.046699956
168	0x3c850ea2	0.016242329
169	0xbc35e006	-0.011100775
170	0x3d168e55	0.036756832
171	0xbb8a1c86	-0.004214826
172	0xbc793fcd	-0.015212965
173	0x3d137748	0.036002427
174	0xbbcb46f6	-0.0062035276
175	0xbd2eca83	-0.0426736
176	0xbd68f02f	-0.056869682
177	0xbd6c9903	-0.05776311
178	0xb99104ec	-0.00027660222
179	0xbd0a8f02	-0.03382779
180	0xbd818b0e	-0.06325351
181	0xbcb8da52	-0.02256504
182	0xbd48ed2a	-0.049054302
183	0xbd05f15f	-0.032700893
184	0xbc87f2ad	-0.016595209
185	0x3c2c7860	0.0105267465
186	0x3d4866d8	0.048926204
187	0xbc93dc62	-0.018049423
188	0x3cc3ba68	0.023892596
189	0x3cf7d9f5	0.030255297
190	0x3d8415f7	0.06449502
191	0x3c3b8e57	0.011447511
192	0xbbd9854e	-0.0066382056
193	0x3bc8209e	0.006107404
194	0xbb315853	-0.0027060702
195	0xbcc5b18f	-0.024132518
196	0x3d275f36	0.040862285
197	0x3d8449ed	0.06459413
198	0x3d564c5b	0.052318912
199	0xbc6ca5fb	-0.01444387
200	0xbde90226	-0.11377363
201	0xbae0ccf9	-0.001715093
202	0x3d16ddbb	0.036832552
203	0x3c9aed93	0.018912112
204	0x3b1c8619	0.002388364
205	0xbd2b4851	-0.041817013
206	0xba7d2aa2	-0.0009657537
207	0xbcdd0e7c	-0.026984446
208	0xbc749c93	-0.014929908
209	0xbcdbc72d	-0.026828373
210	0xbc55ab62	-0.013041349
211	0xbd32949c	-0.043598756
212	0x3d00a16e	0.03140395
213	0x3d6199e4	0.055078402
214	0x3d913a0e	0.07091151
215	0x3d1d4587	0.038396385
216	0x3b20460c	0.0024455814
217	0x3c589ecf	0.013221457
218	0x3da546be	0.080701336
219	0x3d7587a0	0.059943795
220	0x3d95232f	0.07282101
221	0x3d1b7465	0.0379528
222	0xbb97787e	-0.004622518
223	0xbcb7b31e	-0.022424277
224	0x3c054e7f	0.008136391
225	0x3d3431cf	0.043992814
226	0x3da33c3f	0.079704754
227	0x3c9a445d	0.018831426
228	0xbda76ce4	-0.08175066
229	0xbcaafa18	-0.020871207
230	0xbcc76f7a	-0.024345148
231	0xbabf01b8	-0.0014572656
232	0xbd660138	-0.056153506
233	0xbca09777	-0.019603474
234	0x3c7eb189	0.015545257
235	0x3d12b018	0.035812467
236	0x3d6f030a	0.058352508
237	0x3d20d1ff	0.039262768
238	0x3d059288	0.032610446
239	0x3ce1cd33	0.027563667
240	0x3d35b0db	0.044358116
241	0x3d9072f2	0.07053174
242	0x3e020c9a	0.1270012
243	0x3dcbc2c1	0.09949256
244	0x3dbfb438	0.09360546
245	0x3d83970d	0.06425295
246	0x3db5e111	0.08880819
247	0x3dbd3461	0.09238506
248	0x3e0b1643	0.13582711
249	0x3dc3ed0f	0.095667
250	0x3c6cbcce	0.014449311
251	0x3cfa8cdc	0.030584745
252	0x3bea4aa3	0.0071500107
253	0x3d43d3df	0.047809478
254	0x3d9f0458	0.077645004
255	0x3d405109	0.04695228

bias f4 [100]
0	0x3da3ebd7	0.08003967
1	0x3c56facf	0.013121321
2	0x3c3d1265	0.01154003
3	0x3bade543	0.005306871
4	0xbd157311	-0.03648669
5	0x3d5d62ed	0.05404942
6	0x3b5c59dc	0.0033622896
7	0x3dad1484	0.08451179
8	0xbb6a55d0	-0.0035756715
9	0x3da14c17	0.07875841
10	0xbb880f0a	-0.0041521834
11	0x3d2c08dd	0.04200064
12	0x3d2e26ca	0.04251746
13	0x3d9016e7	0.07035618
14	0x3db08d8d	0.08620749
15	0xbc3421a9	-0.010994353
16	0x3d02d129	0.031937752
17	0xbc97d0f9	-0.018532263
18	0x3dcb0a24	0.099140435
19	0x3dae97b9	0.085250326
20	0x3cf779ce	0.030209448
21	0xbc9ef415	-0.019403497
22	0xbbcf6f6b	-0.0063304207
23	0x3cfc71f4	0.030816056
24	0xbd91174e	-0.07084523
25	0xbcfe8e8a	-0.031073827
26	0x3db85405	0.090004005
27	0x3d79600f	0.060882624
28	0xbc1b1603	-0.009465697
29	0x3c9b2d76	0.018942576
30	0xbd8f9f33	-0.07012787
31	0x3d0f9c68	0.03506127
32	0x3dd54d37	0.10415118
33	0x3ce759b4	0.028241016
34	0xbd84953b	-0.06473776
35	0x3d9fef71	0.07809342
36	0x3c5a65e1	0.013329954
37	0xbbb639c9	-0.0055610877
38	0x3db3725f	0.08762049
39	0x3b9c5cca	0.0047718035
40	0x3d04661d	0.032323945
41	0x3d84c7ff	0.06483459
42	0x3d62cafd	0.055369366
43	0xbd223133	-0.0395977
44	0x3d629ba0	0.055324197
45	0x3d57197f	0.05251455
46	0x3dc16d24	0.09444645
47	0xbd8c8e9d	-0.06863139
48	0xbcd5fb6a	-0.02612086
49	0x3dc55795	0.096358456
50	0xbc8ac367	-0.016938878
51	0x3d28681c	0.04111491
52	0x3de07a9e	0.10960887
53	0xbcf6f241	-0.030144813
54	0xbcdbcbe5	-0.026830623
55	0x3c96070c	0.018313907
56	0x3bd71cf6	0.0065647317
57	0x3d8d35a7	0.06894999
58	0x3d93db3f	0.07219552
59	0xbd61532f	-0.05501097
60	0x3d1ee43c	0.03879188
61	0xbca89b09	-0.020581739
62	0xba8d0271	-0.0010758174
63	0x3cca0566	0.024660777
64	0xbc9cb788	-0.019130483
65	0x3cb43f0d	0.022002721
66	0xbcb1e9d2	-0.02171794
67	0xbdb31fc5	-0.08746294
68	0x3d4482f6	0.047976457
69	0xbcb7f2b6	-0.0224546
70	0x3d9b0683	0.075696014
71	0xbd109339	-0.035296652
72	0x3d3a0c02	0.045421608
73	0x3c8f4f91	0.017493995
74	0x3af73d32	0.0018862842
75	0x3d2fe063	0.0429386
76	0xbb6e9459	-0.003640434
77	0x3d0f9475	0.03505369
78	0x3d8017f9	0.062545724
79	0x3d576a14	0.0525914
80	0x3cdfec2a	0.027334291
81	0x3dcaacf8	0.098962724
82	0xbc5ed43a	-0.013600403
83	0x3d6628bd	0.056191195
84	0x3d965ff9	0.07342524
85	0x3b9b6b4e	0.0047430163
86	0x3dd5870a	0.10426147
87	0xbbd9223c	-0.0066263955
88	0xbb77c770	-0.0037808083
89	0x3d881fce	0.06646691
90	0x3de0fba2	0.10985495
91	0x3d7aa786	0.06119492
92	0x3cccff5c	0.025024109
93	0x3d99cbc4	0.07509568
94	0x3d35a20a	0.044343986
95	0x3d847dc1	0.06469298
96	0x3a86da98	0.0010288535
97	0x3bf36cb5	0.0074287304
98	0x3d511990	0.05104977
99	0x3c07f717	0.008298657

weight f4 [100, 100]
0	0x3d218211	0.03943068
1	0x3e28361f	0.16426896
2	0xbd3965d9	-0.045263145
3	0x3d3f46a1	0.046698216
4	0x3bbac885	0.0057001733
5	0x3e158d84	0.14604765
6	0xbccc6bbd	-0.024953717
7	0x3deecdb8	0.116603315
8	0xbdf4d0d0	-0.1195389
9	0x3d7044f0	0.058659494
10	0x3d00e21e	0.031465642
11	0x3d872dc0	0.06600523
12	0x3c1561ef	0.0091175875
13	0xbe15fdd9	-0.14647616
14	0x3d78ee5a	0.060774185
15	0x3dff171a	0.12455578
16	0xbe03a5ef	-0.12856267
17	0x3daf140b	0.08548745
18	0xbd5449eb	-0.051828306
19	0xbcc05cc2	-0.02348173
20	0xbdbed7c2	-0.09318496
21	0xbcb76708	-0.022387996
22	0xbd148933	-0.036263656
23	0xbd7d598c	-0.061852977
24	0x3da34c5e	0.0797355
25	0x3b281b61	0.0025651085
26	0xbe2bf44b	-0.16792409
27	0xbd97fb26	-0.0742095
28	0xbd813cea	-0.063104466
29	0x3d15464c	0.036443993
30	0x3d567525	0.05235781
31	0x3dc6fbaf	0.097159736
32	0x3d4f5765	0.050620455
33	0x3e1f3582	0.15547755
34	0xbdd0d3dd	-0.1019666
35	0xbbcc314d	-0.006231463
36	0x3bd78003	0.0065765395
37	0xbdb0ecc4	-0.086389095
38	0x3d09b3bb	0.03361867
39	0x3dbf9ad2	0.093557015
40	0x3c82f06a	0.015983779
41	0xbdd7ca54	-0.10536638
42	0x3e09fbac	0.13474911
43	0xbd44ff4e	-0.04809504
44	0x3dad77de	0.084701285
45	0x3d8b0d06	0.067895934
46	0xbbe1a1c8	-0.006885741
47	0xbc7814cb	-0.015141676
48	0x3ce60e06	0.028082859
49	0xbd87d32f	-0.06632077
50	0x3d956692	0.07294954
51	0xbd06673b	-0.032813292
52	0xbdbd5b12	-0.09245886
53	0x3db1eb2c	0.086874336
54	0x3d868da9	0.06569988
55	0x3dd61d37	0.10454791
56	0xbce83beb	-0.028348884
57	0xbdc62eba	-0.09676881
58	0xbdbd635e	-0.092474684
59	0x3e00f946	0.1259509
60	0xbcb7cc61	-0.022436323
61	0xbdf0beaf	-0.1175512
62	0xbd942466	-0.07233505
63	0xbcc72fdf	-0.024314819
64	0xbd9ad4de	-0.075601324
65	0x3d104ae2	0.035227664
66	0xbd7dd0c0	-0.061966658
67	0x3d9f5b88	0.0778113
68	0xbcd34fac	-0.025794826
69	0xbd721e4b	-0.05911092
70	0x3dc58821	0.09645105
71	0x3d4de21f	0.050264474
72	0xbd4bede5	-0.04978742
73	0x3cc2c4ba	0.023775447
74	0x3da30bf7	0.079612665
75	0xbd525415	-0.051349718
76	0x3d01beb1	0.031675998
77	0xbd996b0b	-0.0749112
78	0x3d9335fb	0.0718803
79	0xbc418bfb	-0.011813159
80	0xbc6c4a4a	-0.014422009
81	0x3d314f8a	0.043288745
82	0xbc02cd40	-0.007983506
83	0xbd1bfd87	-0.03808358
84	0xbd3b844c	-0.045780465
85	0xbd367008	-0.044540435
86	0x3d550d96	0.05201491
87	0x3e0fee9d	0.14055867
88	0xbd05a0b9	-0.03262398
89	0xbde1d9b7	-0.11027854
90	0x3ca0fbde	0.01965135
91	0xbc4a60df	-0.012352197
92	0xbd403291	-0.046923224
93	0x3d99df81	0.07513333
94	0xbdb0087c	-0.08595368
95	0x3e27ce30	0.16387248
96	0xbd9545b2	-0.07288684
97	0x3da3a09f	0.079896204
98	0xbc9e2350	-0.019303948
99	0xbd5aeef6	-0.053450547
100	0xbd62635d	-0.05527054
101	0x3d46f74c	0.048575684
102	0x3d99ca3c	0.07509276
103	0xbd4463e0	-0.04794681
104	0x3dbf1076	0.093293115
105	0x3e46da76	0.19419274
106	0xbdaecfde	-0.08535741
107	0xbc2a772d	-0.01040439
108	0xbdc7e867	-0.09761124
109	0xbda296f0	-0.07938945
110	0x3e13704c	0.14398307
111	0x3d272649	0.040807996
112	0x3dee7ea5	0.11645249
113	0x3d0ff1bc	0.035142645
114	0x3d15a360	0.03653276
115	0xbcbaf990	-0.022824079
116	0x3e52ad34	0.20573884
117	0x3df42630	0.11921346
118	0xbd260d12	-0.04053981
119	0xbdcd6ce5	-0.100305356
120	0x3e26cc38	0.16288841
121	0xbd7ba5d5	-0.061437447
122	0xbd00d892	-0.031456538
123	0x3e23e6af	0.16005968
124	0x3d9f92df	0.07791685
125	0x3cebd6c1	0.028788926
126	0x3e372d74	0.17888433
127	0x3d9e5782	0.077315345
128	0xbb82bbba	-0.003989664
129	0xbd215372	-0.03938622
130	0x3dbbc9de	0.091693625
131	0xbda0231a	-0.07819195
132	0xbcc8647a	-0.024461973
133	0xbe382590	-0.17983079
134	0xbd24e36e	-0.040255956
135	0xbe0781e2	-0.1323314
136	0x3d5cadda	0.053876735
137	0x3e51e85a	0.20498791
138	0x3cc69742	0.024242047
139	0x3c89dfcd	0.01683035
140	0x3cfe8da9	0.031073408
141	0x3cbaebb4	0.02281747
142	0x3e032f4f	0.12811016
143	0x3da17423	0.078834794
144	0xbe24d81b	-0.16098063
145	0xbe166c5f	-0.14689778
146	0xbcb678cc	-0.022274397
147	0x3bbb9562	0.005724595
148	0x3d720480	0.059086323
149	0xbd8eb3fc	-0.06967923
150	0xbe74debe	-0.23913094
151	0xbd278d9b	-0.04090653
152	0x3cb26a3a	0.021779168
153	0x3e31209b	0.17297594
154	0x3e0ee17c	0.13953203
155	0xbdc408f9	-0.09572024
156	0x3d5ef85c	0.054436073
157	0x3d587bdc	0.052852497
158	0xbd843200	-0.06454849
159	0x3dbe8589	0.093028136
160	0x3ca82352	0.020524655
161	0xbd5f5bff	-0.054531094
162	0x3e275051	0.16339232
163	0xbc0e0e99	-0.008670473
164	0x3d4f8aad	0.05066936
165	0xbd0934bd	-0.03349756
166	0xbaa83b8e	-0.0012835131
167	0x3d24761f	0.04015171
168	0x3d1aa2a9	0.03775278
169	0xbc3acd3c	-0.011401471
170	0xbd6f44db	-0.058415275
171	0x3c30fb25	0.010802065
172	0xbda08fbc	-0.07839915
173	0xbe23d134	-0.15997773
174	0x3e169c87	0.14708148
175	0xbc44d40c	-0.012013447
176	0x3d5e7e67	0.054319765
177	0x3d992f4d	0.07479725
178	0xbd3252ac	-0.043535873
179	0x3e1bdc90	0.15220857
180	0x3e2123b0	0.1573627
181	0x3d364dae	0.044507675
182	0x3db60d8a	0.08889301
183	0xbe2b38bf	-0.16720866
184	0x3dca8b6d	0.098898746
185	0x3df1c05d	0.118042685
186	0xbe140184	-0.14453703
187	0xbb1ebd90	-0.0024221875
188	0x3d364dae	0.044507675
189	0x3dc13efa	0.0943584
190	0xbe2cb7ca	-0.16866985
191	0xbdad4be9	-0.08461744
192	0x3cd7e6e5	0.026355216
193	0xbdb9da15	-0.09074799
194	0x3e31f33f	0.17377947
195	0xbeb2f79c	-0.34954536
196	0xbc1cf938	-0.009580903
197	0xbdb49394	-0.08817211
198	0x3a2403e2	0.0006256682
199	0x3da448ff	0.080217354
200	0xbd0436f9	-0.03227899
201	0xbde458b9	-0.11149735
202	0xbd053326	-0.032519482
203	0xbd528c51	-0.051403347
204	0x3df61576	0.12015812
205	0x3d645372	0.055743642
206	0x3dc2e1bb	0.09515711
207	0xbd2d3831	-0.042289916
208	0x3db93eff	0.09045219
209	0x3e5b7926	0.21432933
210	0x3dd51943	0.10405209
211	0xbd96807f	-0.073487274
212	0x3e37e78f	0.17959426
213	0xbd1234b9	-0.03569481
214	0x3d30d8b7	0.043175425
215	0x3dae5922	0.085130945
216	0x3e4f6cae	0.20256302
217	0x3d82deb4	0.063901335
218	0x3e6a8014	0.2290042
219	0xbdb2abe1	-0.087241895
220	0x3e2a0429	0.1660315
221	0xbe326215	-0.17420228
222	0x3e0ae995	0.13565667
223	0x3e08aceb	0.13347213
224	0xbe1d6cbf	-0.15373515
225	0xbcdc3580	-0.02688098
226	0xbc13c799	-0.009019756
227	0xbdc11ed9	-0.09429712
228	0x3e45935a	0.19294491
229	0xbdf0d118	-0.117586315
230	0x3d83a957	0.064287834
231	0xbe0f1fd7	-0.1397699
232	0xbd38ba94	-0.04509981
233	0x3ea66996	0.3250243
234	0xbce01f62	-0.027358714
235	0xbd87603a	-0.06610151
236	0xbd884a79	-0.066548295
237	0x3e273863	0.16330104
238	0x3e199b81	0.15000726
239	0x3d8c7428	0.068580925
240	0x3d25aa79	0.04044578
241	0xbd93bbe4	-0.07213572
242	0x3df28e2d	0.11843524
243	0x3db2d043	0.08731129
244	0xbe06d37a	-0.1316661
245	0xbdebb036	-0.11508219
246	0x3dbd4edd	0.092435576
247	0x3de30dd7	0.11086624
248	0xbe0b09f8	-0.13578022
249	0xbd8c1098	-0.068391025
250	0xba3fd240	-0.00073174015
251	0x3bf13a93	0.007361719
252	0xbd6f6c62	-0.05845297
253	0x3d637375	0.05553003
254	0x3dc31078	0.095246255
255	0xbe071b63	-0.13194041

bias f4 [100]
0	0xbd6b1d07	-0.05740073
1	0x3b38b16b	0.0028181921
2	0x3d42916d	0.04750197
3	0xbc0dde9f	-0.008659034
4	0x3e008c50	0.12553525
5	0xbcc23331	-0.02370605
6	0xbcae4354	-0.021272339
7	0x3cb06072	0.021530364
8	0xbe2b0210	-0.16700006
9	0x3da04170	0.07824981
10	0x3d2823e0	0.041049838
11	0x3dcce456	0.10004489
12	0x3d1436e0	0.036185145
13	0xbcb1c68a	-0.021701116
14	0xbd15dc12	-0.03658683
15	0x3d088c4c	0.033336923
16	0xbdf492a5	-0.11942033
17	0xbd37b02c	-0.044845745
18	0x3dc97815	0.09837357
19	0x3c0ca9bf	0.0085853925
20	0x3d5b6bb7	0.05356952
21	0x3cb9e79b	0.022693446
22	0x3e16595d	0.14682527
23	0x3dcfefe3	0.10153177
24	0xbd2d76f6	-0.042349778
25	0x3cc4d9a7	0.024029566
26	0x3ca4842b	0.020082554
27	0xbc635070	-0.013874158
28	0x3da7a923	0.08186557
29	0xbd0b15b3	-0.03395624
30	0x3d92b2fe	0.07163046
31	0xbc5ac8e7	-0.013353563
32	0x3d77ff08	0.06054595
33	0xbd1c8ef4	-0.03822227
34	0xbca92b5a	-0.020650554
35	0xbda4d6f0	-0.080488086
36	0x3dced787	0.10099702
37	0x3d0764b3	0.03305502
38	0x3ccb2791	0.02479914
39	0x3ddf9ec7	0.10918956
40	0xbdc3d647	-0.095623545
41	0x3dd32156	0.10309093
42	0x3cf70b1f	0.03015667
43	0xbced7b70	-0.028989524
44	0x3da8d7a3	0.082442544
45	0x3c48b67b	0.012250538
46	0x3da16ff2	0.0788268
47	0x3c8a3fe9	0.016876178
48	0x3d9488f3	0.072526835
49	0x3d983665	0.0743225
50	0x3d0f1f25	0.03494181
51	0x3d828ee5	0.06374911
52	0x3d0792ce	0.03309899
53	0x3e2afe1b	0.16698496
54	0x3e156d71	0.1459253
55	0xbca78294	-0.020448007
56	0xbdb8aa9d	-0.09016917
57	0xbd902bf1	-0.07039631
58	0x3dc60b4b	0.09670123
59	0xbd980317	-0.07422464
60	0xbddc04a5	-0.107430734
61	0xbd161875	-0.036644418
62	0xbd0838b1	-0.03325719
63	0xbd34d41f	-0.044147607
64	0xbd4e910c	-0.050431296
65	0x3da3788d	0.079819776
66	0x3de0a9c2	0.10969879
67	0x3dd723f1	0.10504902
68	0x3cfc511c	0.030800395
69	0x3d223551	0.039601628
70	0x3e0c351c	0.13692135
71	0xbd9d9049	-0.07693536
72	0x3d5d7288	0.054064304
73	0xbc69e00a	-0.0142746065
74	0x3d976201	0.0739174
75	0x3db00386	0.08594422
76	0x3df930e1	0.12167526
77	0x3d828fbc	0.063750714
78	0x3e088257	0.1333097
79	0x3ccd9ac5	0.025098214
80	0xbd9446f6	-0.07240097
81	0xbd6664c3	-0.056248438
82	0x3dabbe31	0.083858855
83	0x3dac5864	0.08415297
84	0x3b6cab7b	0.0036112953
85	0xbce948d5	-0.028477112
86	0x3dac3f16	0.0841047
87	0x3cf7939f	0.030221758
88	0xbd445f94	-0.047942713
89	0xbd900256	-0.070316955
90	0x3d96a81a	0.073562816
91	0x3dbaedb7	0.09127372
92	0xbd9574a2	-0.072976366
93	0x3d36bfa7	0.044616368
94	0x3e26779f	0.1625657
95	0x3daad30a	0.08341034
96	0xbdaaf8d3	-0.08348241
97	0x3d898af1	0.06715954
98	0x3cb3e417	0.021959348
99	0x3d6092a3	0.054827344

weight f4 [10, 100]
0	0x3db54faf	0.08853089
1	0xbe3fd3e5	-0.18733175
2	0xbdead2d8	-0.114659965
3	0x3de0d574	0.10978213
4	0x3dce3f83	0.10070708
5	0xbe396b8e	-0.18107435
6	0x3e0ee801	0.1395569
7	0xbe046145	-0.1292773
8	0x3e10d8d8	0.1414522
9	0xbd6cafdd	-0.057784904
10	0xbe1b6252	-0.15174225
11	0x3e249808	0.1607362
12	0xbe43959e	-0.19100043
13	0xbe89bdb5	-0.26902547
14	0x3da1f139	0.07907338
15	0xbd9d1eec	-0.076719135
16	0x3d616245	0.055025358
17	0x3d8505a5	0.06495217
18	0xbe0392ca	-0.12848964
19	0xbbcc0634	-0.0062263254
20	0xb9f98a9e	-0.0004759626
21	0x3d250f1a	0.040297605
22	0x3daa7513	0.083231114
23	0xbe058f81	-0.13043024
24	0xbdaf351c	-0.08555052
25	0xbdc7d3b6	-0.097571775
26	0x3d199e19	0.03750429
27	0x3df0660c	0.11738214
28	0x3d6f5621	0.05843175
29	0x3db75997	0.08952635
30	0xbdf21850	-0.118210435
31	0xbda02d93	-0.078211926
32	0xbcc843f2	-0.024446461
33	0x3c11b01d	0.008892086
34	0xbda5f30b	-0.081029974
35	0xbdc4fc1d	-0.09618399
36	0xbe1ed79b	-0.15511934
37	0x3dcb54fb	0.09928318
38	0xbdf21898	-0.11821097
39	0xbcd676c8	-0.026179686
40	0xbc1f4b51	-0.009722547
41	0xbd9683af	-0.073493354
42	0x3c06e8de	0.008234231
43	0xbda3d5ae	-0.079997405
44	0xbdd30dc7	-0.10305362
45	0xbe224440	-0.15846348
46	0x3e230413	0.15919523
47	0x3d5ce94b	0.053933423
48	0x3e3e638c	0.18592662
49	0x3c6bd425	0.014393841
50	0xbd97f8d6	-0.074205086
51	0x3d8648ac	0.0655683
52	0xbe3c0d73	-0.18364505
53	0xbd82667b	-0.06367203
54	0xbd3087f4	-0.043098405
55	0x3d7fa70f	0.06241518
56	0xbdb11a54	-0.086476
57	0xbda23c5a	-0.079216674
58	0xbda73f24	-0.0816634
59	0xbe097329	-0.13422836
60	0x3d00f2cd	0.031481553
61	0x3ddf0e02	0.10891344
62	0xbcdf75a8	-0.027277783
63	0x3cbbf5d4	0.022944368
64	0x3dd1d08c	0.10244855
65	0x3de580dc	0.112062186
66	0x3cbdcf26	0.023170065
67	0x3d720a57	0.059091892
68	0xbe05b5aa	-0.1305758
69	0xbe06ebcb	-0.13175885
70	0xbd6fb610	-0.058523238
71	0xbdaf5e68	-0.085629284
72	0xbcfb591a	-0.030682135
73	0x3dd145df	0.10218405
74	0xbd73a6be	-0.05948519
75	0xbc99cf20	-0.018775523
76	0xbddb2ad0	-0.10701525
77	0x3be6f5b6	0.007048334
78	0x3c5a6be9	0.013331392
79	0x3dea75ef	0.11448275
80	0xbc991f8f	-0.018691806
81	0xbcd845a9	-0.026400404
82	0xbdd68921	-0.10475374
83	0xbca6077a	-0.020267237
84	0x3e271b4b	0.16319005
85	0xbdb31345	-0.0874391
86	0x3df549ad	0.11976943
87	0xbe182e8b	-0.14861505
88	0xbd491e64	-0.04910125
89	0xbd906820	-0.0705111
90	0xbdbef359	-0.09323759
91	0xbddc84c5	-0.10767511
92	0x3ce49ed2	0.027907763
93	0xbd5bdcf9	-0.053677533
94	0xbe1171c5	-0.14203556
95	0xbe1e5036	-0.15460286
96	0xbda904b1	-0.08252848
97	0xbe036bca	-0.12834087
98	0xbda993d3	-0.08280148
99	0x3d9abc02	0.07555391
100	0xbdb2c203	-0.08728411
101	0xbd988887	-0.074479155
102	0x3e22abb2	0.15885809
103	0xbe263358	-0.16230524
104	0xbe17f887	-0.148409
105	0x3dadeb41	0.08492137
106	0xbd549560	-0.051900268
107	0x3da684bf	0.08130788
108	0xbe0f8472	-0.14015368
109	0xbe18ed73	-0.1493433
110	0xbcd7401c	-0.026275687
111	0x3de5dd85	0.11223892
112	0x3d9a378c	0.07530126
113	0x3bd79f35	0.0065802583
114	0xbc87e34c	-0.016587876
115	0x35b06600	1.3142708e-06
116	0xbd5eed57	-0.054425564
117	0xbe22c293	-0.15894537
118	0x3e0fb276	0.14032921
119	0xbdc1a56e	-0.09455381
120	0xbe1a1b74	-0.15049535
121	0xbe16efad	-0.14739867
122	0xbe091794	-0.133879
123	0x3db68eea	0.089139774
124	0x3c64431e	0.013932018
125	0x3b71a317	0.003687089
126	0xbe408139	-0.18799295
127	0xbdb00674	-0.08594981
128	0x3e252fd6	0.16131529
129	0x3e1289a9	0.14310326
130	0x3e041161	0.12897255
131	0x3d1dd0de	0.03852927
132	0x3dbb7e35	0.091549315
133	0x3d02df66	0.03195133
134	0xbe10ce5f	-0.14141224
135	0x3c897309	0.016778486
136	0x3dda7b3e	0.10668038
137	0x3e147638	0.14498222
138	0x3dbc8cff	0.0920658
139	0xbd2b5efb	-0.041838627
140	0xbdaa303f	-0.083099835
141	0x3d5fe4bf	0.05466151
142	0x3d2c79ad	0.042108227
143	0x3d8ab3ca	0.06772573
144	0xbbd605e1	-0.0065314625
145	0x3d836389	0.06415469
146	0x3e137977	0.14401804
147	0xbe3c3d63	-0.18382792
148	0x3e32eed1	0.17473914
149	0xbd3fafb9	-0.04679844
150	0x3d7e6a3e	0.06211304
151	0x3c823ce1	0.01589817
152	0xbe029275	-0.12751181
153	0x3e1ee65b	0.15517561
154	0x3e384297	0.17994152
155	0xbe19253a	-0.14955607
156	0x3d98c50b	0.07459458
157	0x3bea4556	0.007149379
158	0x3dc2eab1	0.0951742
159	0x3d8d5287	0.069005065
160	0x3d01994c	0.031640336
161	0xbd80a3d2	-0.06281246
162	0x3c932544	0.017962106
163	0xbe46c043	-0.1940928
164	0xbd80ff69	-0.062987156
165	0xbdfcd2d1	-0.123448975
166	0xbdde1b02	-0.10844995
167	0xbe12e64d	-0.14345665
168	0xbe4662d7	-0.19373642
169	0xbb859b0f	-0.0040773223
170	0xbe32f1f2	-0.17475107
171	0x3db6a2d6	0.08917777
172	0xbac769d8	-0.0015214039
173	0xbe3b66d1	-0.1830094
174	0xbbfd69ab	-0.007733544
175	0xbe205bc0	-0.1566
176	0x3e15763f	0.14595889
177	0x3be35856	0.0069380207
178	0xbdbb33db	-0.0914075
179	0xbd22d84c	-0.039757058
180	0xbd5ba58a	-0.053624667
181	0x3db6b46d	0.08921132
182	0xbe3f9f13	-0.18713026
183	0xbdc36dbd	-0.09542415
184	0xbdb155a3	-0.08658912
185	0xbcc7ee7b	-0.024405709
186	0xbdc3aad2	-0.09554066
187	0x3dbbf2c7	0.091771655
188	0xbdd07507	-0.10178571
189	0x3cff8a31	0.031193824
190	0xbe404124	-0.18774849
191	0xbc06b61d	-0.00822213
192	0xbc69c883	-0.014268997
193	0xbe3f069f	-0.1865487
194	0x3e0b59de	0.136085
195	0x3dd464c6	0.103707835
196	0x3d4a469a	0.049383737
197	0x3dff2db1	0.12459887
198	0xbdb7b426	-0.089699075
199	0xbe3dda57	-0.18540321
200	0xbe2e3d54	-0.17015582
201	0x3e1bd404	0.15217596
202	0x3e4d2977	0.20035349
203	0xbdf71dd4	-0.12066236
204	0x3ddaca7b	0.10683151
205	0x3dcfd893	0.1014873
206	0x3d6a26cb	0.057165902
207	0x3d2f89b9	0.042855952
208	0xbdbd8beb	-0.09255203
209	0xbc8d42fa	-0.017243851
210	0x3e19d418	0.15022314
211	0xbda6e480	-0.08149052
212	0xbde742f5	-0.11292068
213	0xbde1bee2	-0.11022736
214	0x3bc08353	0.00587503
215	0x3dd9bf42	0.10632183
216	0xbd94cbee	-0.07265459
217	0x3d649ae7	0.05581179
218	0xbe37e32e	-0.17957756
219	0x3e18546a	0.14875951
220	0x3d92accf	0.07161867
221	0xbddf27fc	-0.10896298
222	0xbd9242f2	-0.07141675
223	0x3ca9478b	0.020663997
224	0x3e1cebe4	0.1532436
225	0x3d00b85b	0.031425815
226	0xbcdcc868	-0.02695103
227	0xbe18e39e	-0.14930579
228	0xbe22ccf9	-0.15898503
229	0x3df8b6b4	0.12144223
230	0x3e0f9bfe	0.1402435
231	0xbdf04caf	-0.11733376
232	0xbde772c3	-0.11301186
233	0xbd2de2db	-0.042452674
234	0x3d8f7078	0.070038736
235	0xbbf48ca3	-0.0074630543
236	0xbe524f04	-0.20537955
237	0x3d521e2c	0.051298305
238	0xbd47b9ef	-0.048761304
239	0xbd835997	-0.06413572
240	0xbc9b5909	-0.018963354
241	0xbd7b9c68	-0.061428457
242	0x3d9b2adb	0.075765334
243	0x3cd6e61d	0.026232773
244	0xbb80a9a1	-0.0039264713
245	0xbc5998b6	-0.013281038
246	0xbd6cabce	-0.057781033
247	0x3c7ce0ef	0.015434488
248	0xbd898783	-0.067153
249	0xbd10bc91	-0.03533608
250	0x3e04e885	0.12979324
251	0x3e089bc3	0.13340668
252	0xbd44a062	-0.048004515
253	0xbec0eb89	-0.376797
254	0x3c0c3570	0.008557662
255	0x3e12ab49	0.14323153

bias f4 [10]
0	0xbde0773e	-0.10960244
1	0x3d8c41da	0.06848498
2	0x3d2f1bfd	0.0427513
3	0x3d6681be	0.056276076
4	0xbb35771f	-0.002768941
5	0x3e02fa58	0.12790811
6	0xbd99f31a	-0.07517071
7	0x3db6220f	0.08893215
8	0xbdf08da5	-0.117457666
9	0x3d9d1305	0.07669643
