M4-Deep-learning/02/models/pytorch_ff.pt (torch, 361303 bytes, 6 tensors)

weight f4 [100, 784]
00000000: ca02 fdbc bb25 113d 4a7b e6bc 40c9 dfbc
00000010: 6f51 0dbd 9357 eabc 9a66 a43c 0866 373c
00000020: 8e70 39bc a0b2 05bc cea1 53bc 932b 00bd
00000030: 4ac2 603c cfcd f1bb 5253 8ebc 3d78 403c
00000040: 08b8 373c 7e31 c6bc c5f8 84bc 88ec 933b
00000050: 16bc fe3c 4e62 ff3c d632 df3c ae7a 7fbc
00000060: b17e edbc a084 203b c8c2 c4bb 9088 8ebc
00000070: 7a41 90bc 183b 903b c88f 353c 407e 06bc
00000080: f39f 0abd 188b 833c 40fc feba 60de 253c
00000090: eeba 0abd 543e a8bc e9ef 0bbd 9556 72bd
000000a0: 92b3 09bd fc61 27bd 880e 3abd 273d ccbd
000000b0: 4cef 90bd 73e4 88bd d502 39bd 1d25 41bc
000000c0: 3850 83bd 4769 67bd baae 5ebd 7608 7fbd
000000d0: ae1b e13c 1e08 ae3c 8cef d43c afd6 09bd
000000e0: 96df a23c ee68 dbbc 486b 343c 2a02 4dbc
000000f0: 45e0 1dbd 16fa e03c 3ca3 48bc b299 debc
00000100: 811c 00bd 0390 7cbd ec85 fbbd 3b0f fbbd
00000110: 5db6 dabd 7e26 2bbe 84e8 01be 7845 edbd
00000120: 9009 0fbe dec9 fbbd 18ef 23be f4fe 10be
00000130: 7695 d3bd 595a d8bd 7f78 25bd 4cd3 afbd
00000140: a050 61bd 003e 55bc bc3d 883c 304b 6b3b
00000150: 7815 f33b a0a1 193b 666e da3c 41bc e3bc
00000160: bf77 fbbc 14db c7bc 36ff 84bd 1600 84bd
00000170: f63d 04be fcde 04be c836 15be f461 a2bd
00000180: e763 b0bd 10f3 cfbd 5c7f ddbd 6ba3 c4bd
00000190: c324 88bd 8379 6fbd 3e46 05ba 9dd6 2ebd
000001a0: b657 43bd 365f 02bd 46a9 dbbb 2b31 18bc
000001b0: cc7b 3ebc a00d 90bc 4d08 7cbd f8cb 903c
000001c0: 2a57 7ebc ffe3 ba3c 9bd7 cd3c e525 2d3d
000001d0: e348 3e3b 574d 9d3c ee14 9cbd 968e e7bd
000001e0: d2f8 b9bd 7d3b 49be cace 56be 9360 9dbd
000001f0: 290b e1bd bab4 dcbd 95eb 17be 3c7b eabd
00000200: 4449 83bc 2c2b 16bd e004 bbbc ee3c 7e3c
00000210: 0800 533c eb2a 2eb9 3630 323d a55b c73c
00000220: 91d2 8fbd 1487 8bbc b864 8bbd e770 4dbd
00000230: 703f afbc 30f9 173c eb58 0abd 3af3 5b3d
00000240: 1f6c 423d 43d7 6f3d 1809 f43c 4629 1bbd
00000250: ca45 de3b 854b e6bb ef52 e83b b217 74bd
00000260: 643e 85bd 723b 75bc 6e63 ccbc 8544 2abd
00000270: a5a6 48bc fc53 97bd 76b1 b5bd 5aa9 56bd
00000280: 571e ccbd 3b85 a9bc d629 0bbd 3b3e 38bd
00000290: 04df c4bd abf8 e7bd 4fa1 06bd b639 44bc
000002a0: 34cd 063c 1c74 be3c 1504 843d 0031 f33c
000002b0: 9e86 1ebd 4036 183d 7f97 3a3d 51e0 8e3d
000002c0: ed11 923d 3d59 b53d 98ed bd3d 859a d03d
000002d0: 7fe4 e53d 7bde 9f3d 3223 323d f878 5dbc
000002e0: dbb1 143d 2462 493d 6717 403d 8b52 e23a
000002f0: 0d03 703b 8380 fcbb e817 ad3c 50bd d9bb
00000300: 427c f7bc 93d4 8cbd 5a4e bd3c 642b ac3c
00000310: 5899 40bc 3eca 473c a81a e73d 7665 143d
00000320: f25c 35bd f89c 25bd ec98 9ebc a855 e73c
00000330: 3c01 1f3d 5b1d f73d 19c7 1c3e dac3 fb3d
00000340: 107d 223e bcb4 083e fa15 8c3d 408c 543c
00000350: 2b57 283d 274a 913d 1578 c93c 4f56 4b3d
00000360: 4c8b 963d 84ef 853c a30f 9b3d 90e4 ac3d
00000370: d4db ce3b b16f 2ebd ae25 a03d 7cf2 e2bc
00000380: 9b0e 06bd 6433 2f3d 91d8 df3d 0a49 7e3d
00000390: f909 88bc 1fee a9bd 1283 05bd f820 e03c
000003a0: 6d24 8d3c 06a7 773d 4846 c03d 8351 e63d
000003b0: f8e8 f13d 1de8 2c3d 8748 173c 3faf 763d
000003c0: 3ad2 db3c 7bab aa3d ef91 853d 37da bb3d
000003d0: 525b 313d e7af 8d3d 7826 b83d 995e 993d
000003e0: 9add 153c 4b73 d73c 20b8 8dbc 1031 76bd
000003f0: 8977 5d3c 446f ae3d 681c 3d3d cee5 17bd
-0.030885119 0.035436373 -0.02813496 -0.027317643 -0.03450149 -0.028606212 0.020068455 0.01119376
-0.011318339 -0.008160263 -0.012916995 -0.031291556 0.013718197 -0.0073792706 -0.017373715 0.011747417
0.01121331 -0.024193522 -0.016231904 0.0045142807 0.031095546 0.031174805 0.02724592 -0.015593214
-0.028991075 0.0024493113 -0.006004665 -0.017399102 -0.017609347 0.004401576 0.011081643 -0.008208811
-0.033843946 0.016057536 -0.0019453838 0.010123819 -0.033869676 -0.020537533 -0.034164343 -0.059164602
-0.033618517 -0.04086493 -0.045424014 -0.099726014 -0.07076892 -0.06684198 -0.045168716 -0.011788634
-0.06411785 -0.056496885 -0.05436585 -0.06226393 0.027479019 0.021244105 0.025993131 -0.033652004
0.019882005 -0.026783433 0.011011906 -0.012512723 -0.03854396 0.027463 -0.012245949 -0.027172897
-0.031277183 -0.061660778 -0.12281403 -0.12258764 -0.10679314 -0.16713902 -0.12686354 -0.11585516
-0.13968492 -0.122943625 -0.16009176 -0.14159757 -0.10331242 -0.105641074 -0.040398117 -0.085852236
-0.05500853 -0.01301527 0.016631 0.003590297 0.0074183308 0.0023442283 0.02666397 -0.027799727
-0.030696748 -0.024396457 -0.0649399 -0.06445329 -0.12914261 -0.12975687 -0.14571679 -0.07928839
-0.08612805 -0.10153782 -0.108153075 -0.09601482 -0.06647637 -0.058465492 -0.0005084014 -0.04268514
-0.04769107 -0.03182908 -0.0067035286 -0.009289066 -0.011626195 -0.017584622 -0.061531354 0.017675385
-0.015523711 0.022813795 0.025127223 0.042272467 0.0029035143 0.019201918 -0.076211795 -0.11306493
-0.09080662 -0.19651599 -0.20977321 -0.07684436 -0.10988457 -0.10776658 -0.14835961 -0.11449286
-0.016026147 -0.036662266 -0.022829473 0.015517456 0.012878425 -0.00016609921 0.04350301 0.024335692
-0.07022584 -0.017032184 -0.0680632 -0.0501565 -0.021392554 0.0092757195 -0.033776205 0.053698756
0.047466394 0.0585549 0.029789492 -0.03788116 0.006783222 -0.0070280456 0.0070899646 -0.05959291
-0.06506041 -0.014967786 -0.024949756 -0.04156925 -0.012246762 -0.073890656 -0.088717386 -0.0524076
-0.09966724 -0.020693412 -0.033975445 -0.044981223 -0.09612849 -0.113267265 -0.03286868 -0.01197665
0.008227635 0.023248725 0.06446091 0.029686451 -0.0387026 0.03716111 0.045554634 0.06976379
0.07132325 0.088549115 0.09273833 0.10185722 0.11225223 0.07806107 0.043490596 -0.013517611
0.03630243 0.04916586 0.04689732 0.0017267031 0.0036622912 -0.0077057495 0.021129563 -0.0066448823
-0.030210618 -0.06876483 0.02310865 0.021016784 -0.01175531 0.012194214 0.11284381 0.036229573
-0.044278093 -0.0404329 -0.019360028 0.028239086 0.038819537 0.12066146 0.15310325 0.12293215
0.1586802 0.13350195 0.06840129 0.012972891 0.041098755 0.070942216 0.024593392 0.049642857
0.073507875 0.016349562 0.07571342 0.08442032 0.0063128266 -0.042586986 0.07819687 -0.027703516
-0.032728773 0.04277362 0.10929979 0.062081374 -0.016606318 -0.08297371 -0.0325957 0.02735947
0.017229283 0.06046202 0.09388405 0.11246016 0.118120134 0.042213548 0.0092336 0.06022572
0.026833642 0.083334886 0.06521975 0.091724806 0.04329998 0.06918316 0.08991712 0.07488746
0.009147072 0.026300093 -0.017299712 -0.060105383 0.013517269 0.08517316 0.04616967 -0.037084393

bias f4 [100]
00000000: 686c 213d f653 02bc aecc 113c c1fa 3abb
00000010: 6d8b b03d f8f0 42bc 09fa 593c bc55 2fbd
00000020: 4f3e e5bc 0ce9 3fba b638 10bc dd4b ad3d
00000030: d0ca 72bd 1d09 df3c 6e32 c83d eccb 483d
00000040: 73c6 983c 9ccd d13c fe59 3f3d 92f4 9ebd
00000050: 7138 093d 789d 493c 7532 ef3c a900 62bd
00000060: cb87 183d 5868 f13c 40bd ae3d 28c4 cc3d
00000070: 69cc ed3d 168e a03d 0998 453d 7e91 2f3d
00000080: 4e2a 703d e9de 98ba 56d0 f23c d653 6a3b
00000090: 78e9 b93c 7594 133c 3c00 1f3d 64e7 763d
000000a0: 4ab6 0e3e a83f b3bc 9a95 293d 9b0e 7f3d
000000b0: 9077 493c df9b 1b3e 01c2 00bd 8acc 293c
000000c0: a8f0 613d 4dd4 023d 5c17 3f3c 48b4 8d3d
000000d0: 1d18 6e3c e2cd 883d 6867 183e 9937 083d
000000e0: 2169 473d 66fa 9e3b 147c 293d dc17 9e3d
000000f0: 6165 ffbb 761f 32bc 04e1 2a3b afe9 4f3d
00000100: 485e ac3c 83fb 2ebd ceb8 023d 11b3 45bc
00000110: 8a64 40bd 2e75 c63d 089c f1bc a9cd a93c
00000120: fcdf 493d 0512 063e 437c 543b 84cd adbb
00000130: a169 fabc 02a4 b13d 9e1e 103d 7fc1 8a3c
00000140: 3fc0 3bbb 88c4 113d 4a52 c53c 6800 abbd
00000150: be70 febc 4310 4f3d 9f27 a33c 3e97 d83c
00000160: 0409 b3bc 9f6c 76bd 0034 943d 7d92 b93d
00000170: d1b6 65bc de85 67bd 6d17 933d 3427 abbd
00000180: 110b 2e3d cec2 74ba 6c64 963c 12d5 a23c
0.039410025 -0.007954588 0.008898897 -0.0028530809 0.08620343 -0.011898272 0.013304242 -0.042806372
-0.027983813 -0.00073207985 -0.008802583 0.084617354 -0.05927545 0.027226025 0.09775244 0.0490226
0.018649315 0.025610738 0.046716683 -0.07761492 0.033501092 0.01230561 0.029198864 -0.05517641
0.037238877 0.0294687 0.0853219 0.09998351 0.11611254 0.07839601 0.048240695 0.04286336
0.058634095 -0.0011663112 0.029640358 0.0035755537 0.022694334 0.009007563 0.038818583 0.060279265
0.13936725 -0.02188094 0.041402437 0.06226979 0.012296572 0.15196179 -0.031435017 0.010363707
0.05516115 0.031940747 0.011663284 0.069191515 0.014532116 0.06679894 0.14883196 0.033256147
0.048684243 0.004851627 0.041378096 0.077193946 -0.0077940677 -0.010871759 0.0026074061 0.050759967
0.02104105 -0.04272033 0.031914525 -0.012066619 -0.04697088 0.09690319 -0.029493347 0.02072795
0.049285874 0.13092811 0.0032422699 -0.0053040404 -0.030567946 0.0867386 0.03518545 0.01693797
-0.0028648523 0.035587817 0.02408709 -0.08349687 -0.031059619 0.050552618 0.019916354 0.026439305
-0.021854885 -0.060162183 0.07236481 0.090611435 -0.014020638 -0.05652415 0.071822025 -0.08357087
0.042491022 -0.00093368895 0.018358432 0.01987699

weight f4 [100, 100]
00000000: a674 fabd 393c 423d 6aa7 a13d 6579 b8bd
00000010: f7e5 f6bb c4b6 c43d a89b 84bd cb26 9c3d
00000020: 5347 713d 96d8 0ebc 43f8 d2bd 87f7 073d
00000030: 76fa 203d e997 b5bc 443d c33d 88d5 063e
00000040: 506e 0cbe 5de0 9f3e 1ca7 543d e81a e23c
00000050: 4f27 73bd 3408 0d3d 8ab1 263e 3bd2 12be
00000060: 136a 8cbd 78c7 0e3e ef7d 353e 6be0 863c
00000070: 87dc ed3d b6ff 96ba 10c0 c9bd 7c6f 5d3e
00000080: 344a b43d 24be fabc 3014 0e3a 2bb7 54be
00000090: b1f5 ba3d 6912 97bd 590f 02be 5884 b03d
000000a0: 73df b53c 7a76 ca3d 1510 223e 2427 963d
000000b0: 13de 3e3b 40b5 173e 8faa 24bd ba24 b93d
000000c0: e61f 3e3d 9a38 643d fa7e 0d3d 89fe 95bc
000000d0: 8795 acbd 7914 95bc 3e5d 503e 438b 54bc
000000e0: 4a3d 9f3c e8f9 553e 91a8 71bd e02e 77bd
000000f0: bf82 edbb d451 a63d 2b2f 8fbb 7519 42bd
00000100: 157c f73d 796b c13d 3f10 1bbd e849 013e
00000110: c58e 16bd 5777 323d 9437 82bb 8836 013e
00000120: bed5 11bd 76cb 043d 5c37 8a3d dfd1 5b3c
00000130: 8bfd 7d3c 7121 bd3d 0ddf 413d a278 d73d
00000140: 842a 57bc a05e 6d3d a192 9b3d e45c 00be
00000150: b4e2 5eba 898f c4bd 93ed 52bd 7750 0c3d
00000160: c3c4 a6bd 01cc 13bd 8003 d33d 339b 123e
00000170: e4a9 133e 7ae1 eabd 9926 ef3d 48bb 8b3d
00000180: d70c 49be 13d6 c2bb de05 1fbe 1e11 433e
00000190: ebe3 dd3d 6bfd 873d ef19 cfba 26bc 0b3e
000001a0: b89f 8d3d 06ba 9fbc 4632 c3bc 1863 663d
000001b0: 959c 05bd 4990 a5bd a467 9fbd d5b4 87be
000001c0: 00ab c9bb 4e03 fbbd 3e49 ba3d 2459 35be
000001d0: b76c a93d dc9a 873e 4b7d 5dbd 798d 0ebc
000001e0: bef2 9b3d f5a1 af3d aed7 2ebd 2714 7bbe
000001f0: a2dd a63d ea1f 333e bc66 113d 3dfa 3b3e
00000200: 30e5 39bd 3424 03bd e14f f23c 4e92 f03c
00000210: 8bf2 343e 7e54 0cbe 72b2 ea3d 9330 56bc
00000220: 836c b13c c031 d33d 268d 63bc b359 423d
00000230: bc03 053e 6914 443d 0861 413d b87b e53c
00000240: 123e 933d e31f d63b affd 003d 485c 07bd
00000250: 26b3 c43d bba5 153b 75f8 a9bc 1cdc ad3d
00000260: 45e7 a7bc 56ca e33d e111 7c3d 07d6 ae3d
00000270: e1c4 2cbd 3e0e 3a3e 38fe 013e 1513 35bc
00000280: 830f 213e 131d 0dbc e8e4 b73d 8c26 65bd
00000290: 5917 fe3c bcdd dfbc 95f5 9b3c 64ac bb3b
000002a0: 4748 5a3d a616 64be 030c 6cbd d93b 8fbd
000002b0: 4c37 523d 9c8b d13d 85b9 0e3c 7ff9 9f3d
000002c0: c54f ff3c 3c0a 39bd c943 083e 7757 0fbd
000002d0: 7381 47ba 309d 213e 3bd4 ac3c ce16 57bd
000002e0: 117a 8bbd 4d81 89bc f06f 25bd b419 603d
000002f0: e2f9 683c 1703 a9bc 780d 41bd eb91 cebb
00000300: a5ae 9ebb 218c ac3c 1e80 0d3d 68f2 88bb
00000310: 8af0 65be d3fb db3d 8082 88bd 4691 82bd
00000320: ab14 5b3d 6451 c43d b9e7 9fbc 6995 263e
00000330: d2bf a63d 5d3b 38bd f598 90bd d698 0c3e
00000340: 4e91 99bd 92ba 83bd 9faf 51bd 9c12 50be
00000350: ec84 cebd afa0 36be 6308 f83d ec11 3dbe
00000360: d4c2 463e 34b0 943e a6be 78ba f737 393d
00000370: 8d15 4b3d 7259 d13d d73a a7bd d6ce 34be
00000380: 0e32 babd 681e 883e f48f 7f3d 95ae 5e3e
00000390: f674 72bc 024b 89bd 04d8 293c 70a3 08be
000003a0: da08 823d c452 c8bd 9440 c8bc 331e 853d
000003b0: 241b c83d 5211 dd3d cda5 fabd cb95 abbd
000003c0: 3ad1 a13d 1eec f23d 2b26 d93c ad5e ca3d
000003d0: aa6d c13c 252f 47bb 1bb1 bfbd 98c9 5cbc
000003e0: 3c4d b5bc 4683 95bc 1a44 5a3d 6ee5 75bd
000003f0: dc58 0a3e ee38 db3c 30c3 423d 8cad 6cbd
-0.1222928 0.047420714 0.0789326 -0.09007529 -0.007534738 0.09605172 -0.064750016 0.07624587
0.05890591 -0.00871863 -0.103012584 0.033195045 0.03930136 -0.022167163 0.0953317 0.13167393
-0.13713956 0.31225863 0.05191718 0.02760072 -0.05936366 0.03443165 0.16278663 -0.14338009
-0.068561696 0.13943279 0.17723821 0.016464433 0.11614328 -0.00115203 -0.09851086 0.21624559
0.088032156 -0.030608244 0.0005419878 -0.20772998 0.09128893 -0.07376558 -0.12701167 0.086189926
0.022201275 0.09885879 0.15826447 0.07331684 0.0029124066 0.14815235 -0.04020172 0.09040208
0.04641714 0.055718042 0.034544922 -0.018309848 -0.084269576 -0.018198239 0.20348069 -0.012972656
0.019438405 0.20896113 -0.058998648 -0.060347438 -0.007248252 0.08121076 -0.0043696365 -0.04738756
0.12084214 0.09444327 -0.03785729 0.12625849 -0.03675725 0.043570843 -0.0039739106 0.12618458
-0.03560423 0.032420598 0.0674884 0.013416736 0.015502344 0.09234894 0.04733186 0.10521056
-0.013132695 0.05795157 0.075963266 -0.12535435 -0.00085024093 -0.0959769 -0.0514961 0.034256425
-0.08142998 -0.036083225 0.10303402 0.14317016 0.14420277 -0.114687875 0.11677284 0.068228304
-0.19633804 -0.00594593 -0.15529582 0.19049498 0.108344875 0.066401325 -0.0015800575 0.13645992
0.069152296 -0.019497883 -0.023827683 0.056246847 -0.03262003 -0.08084161 -0.0778344 -0.2650515
-0.006154418 -0.1225649 0.09096001 -0.17709786 0.08272689 0.26485336 -0.054074567 -0.008700722
0.07614659 0.08575813 -0.042686157 -0.24519406 0.08147742 0.17492643 0.035498366 0.18357177
-0.045384586 -0.032016948 0.029579105 0.029366639 0.17670648 -0.13704106 0.11459817 -0.013073104
0.021658188 0.103122234 -0.013888633 0.047448825 0.12989706 0.047871027 0.047211677 0.028013095
0.07189573 0.006534563 0.03149193 -0.03304699 0.09604482 0.0022834379 -0.020748356 0.08489248
-0.02049602 0.11122577 0.06154049 0.08536916 -0.042179946 0.18169495 0.12694633 -0.011051913
0.15728574 -0.008612889 0.08979207 -0.055944964 0.031016992 -0.02732741 0.019038001 0.0057273377
0.053291585 -0.22274265 -0.057628643 -0.06993837 0.051322266 0.102317065 0.0087112235 0.078112595
0.031165967 -0.045175776 0.13307108 -0.034995522 -0.0007610537 0.15782619 0.021097293 -0.052511983
-0.06810392 -0.016785288 -0.040389955 0.054712012 0.014219733 -0.020631356 -0.047131985 -0.006304016
-0.0048425966 0.021062912 0.03454601 -0.0041792877 -0.2245504 0.10741391 -0.06665516 -0.06375365
0.053486507 0.095858365 -0.019519674 0.16267933 0.081420556 -0.04497849 -0.07060424 0.13730177
-0.07498418 -0.0643207 -0.051192876 -0.20319599 -0.100839466 -0.17834733 0.12110975 -0.18463868
0.19410259 0.29040682 -0.0009488858 0.045219388 0.0495811 0.102221385 -0.0816552 -0.17657027
-0.090915784 0.26585698 0.062393144 0.21746285 -0.0147983935 -0.0670376 0.010366444 -0.13343596
0.063493446 -0.09781411 -0.024444856 0.06499901 0.09770802 0.10794319 -0.12238655 -0.0837818
0.07901235 0.11861442 0.026507458 0.09881339 0.023611862 -0.003039309 -0.09359952 -0.013475798
-0.022131555 -0.018251073 0.053287603 -0.060033254 0.1351046 0.026760545 0.047549427 -0.057782695

bias f4 [100]
00000000: fb2e c53c 66ec acbc f52f 24bc 5d39 f43d
00000010: 1d41 673d 6464 c2bb 2019 d73d 38e4 0c3e
00000020: a607 f83d cd24 25bc 8d83 cc3d 609d 85bd
00000030: cea8 04bd bf26 a03d cc4c a73d c102 ac3d
00000040: 11d3 d03d ed96 0bbc 4185 c93d 3344 bd3d
00000050: 5bbd 95bb 9636 543d fc26 e33d 428e f8bc
00000060: b970 9e3d 1299 b03d c63c 8cbb 5f59 f03d
00000070: 66ed c43d 5f36 1cbc 084e cd3c 80bf 83bd
00000080: d64e 063e 700e 33bd 15db acba 7b7f 383e
00000090: 4637 b33c 0483 013d b49b f63d 1864 843a
000000a0: df4e d1bd e9bf 623d 6292 93bd ce69 873d
000000b0: ade1 f03d 6fe3 f83d f14e 4a3d adfe c93d
000000c0: 7a16 a53c 2636 c43d 0c8b 2b3d 355a 80bc
000000d0: 6845 10bd 4578 38bd 87fe 5e3d 139b e03d
000000e0: 9ca2 0c3e f47b bdbd 04c4 8c3d 3c51 963c
000000f0: 6f10 ecbd 8eac 9b3d 07cc d53c 56db 063d
00000100: b8d4 b83d 6e16 e13d 3718 8cbc aed6 b3b9
00000110: 0289 613d 468f 273c 1549 123e bdf6 edbd
00000120: d90c b63d add9 03bd de8d 88bc 6306 c03d
00000130: 63ad b9bc 0be7 b33d 226b 643c 37f9 b93d
00000140: 7e5a b1bd 5e0a 27bc 402e c43d abc5 74bc
00000150: 4167 e03a 55d1 a03d 9ce5 14bd 49e3 f13d
00000160: 6b79 b4bd 62d7 ba3d d43b d13c f70b 2fbd
00000170: 44d4 babd 2cbb 84bd ddc8 033e bfd1 093d
00000180: 5205 c63d 89d0 973d fbde c23d e9cd 24bd
0.024070254 -0.021108817 -0.0100211995 0.11925004 0.05645858 -0.0059323777 0.10502839 0.13758934
0.12110834 -0.010079575 0.09986029 -0.065241575 -0.032387547 0.0781989 0.08168945 0.08398963
0.10196508 -0.00851987 0.09839869 0.092415236 -0.004569692 0.05180987 0.1109142 -0.030341271
0.07736344 0.08622946 -0.0042797057 0.11735796 0.09615593 -0.009534447 0.025061622 -0.0643301
0.13116011 -0.04371494 -0.001318785 0.1801738 0.021876942 0.031619087 0.12041417 0.0010100631
-0.102201216 0.0553588 -0.07205655 0.066119775 0.11761794 0.121527545 0.04939169 0.09863029
0.02015232 0.095806405 0.041880652 -0.015668014 -0.03522244 -0.045036573 0.054441955 0.10967078
0.13733906 -0.09252158 0.068733245 0.018349282 -0.11526572 0.076012716 0.026098264 0.03292402
0.09024948 0.10990606 -0.01710139 -0.0003430149 0.0550623 0.01022703 0.14285691 -0.11619327
0.08889169 -0.032190014 -0.01666921 0.09376218 -0.022665685 0.08784302 0.013941558 0.09080737
-0.08659838 -0.010195343 0.09579134 -0.014939706 0.0017120616 0.07852427 -0.036351785 0.11810929
-0.08812221 0.09123112 0.025541224 -0.04273602 -0.09122518 -0.06481013 0.12869592 0.033647295
0.096689835 0.07412822 0.095151864 -0.040235434

weight f4 [10, 100]
00000000: 683f d3ba ba22 4abd 62db 3b3c aef6 b93d
00000010: 74f6 8cbd b2e3 50be 661c 3dbd be5e dc3c
00000020: 126c a8bc 416c 223e ae8a e73d a782 e83d
00000030: 0905 723e 0fa8 8dbc eda8 163e 0ab4 cebd
00000040: 0fae febd 72ef 2dbe 3d86 453d aa25 923d
00000050: dba0 253e 295c d7bd 285c 03be 8627 383d
00000060: 4a04 d33d 34ab 0d3e 8c1d e2bd 226d 51bd
00000070: fc1a 8c3d c8d3 b4bd 173c 4fbd aa5e 14bc
00000080: 90da e5bd 83ba c43d 697f 083e 3d18 78be
00000090: beb9 af3c 2b91 f2bd 2bb5 053e eae4 d1bd
000000a0: 8aed 393c 9e9f 913d 8e2d 07be 4280 093e
000000b0: d017 d5bd 5b14 2d3d e5e6 edbb fe6f 8cbd
000000c0: 4fff 31be 17dc d6bd 99cc 1d3c dac2 183d
000000d0: 6b28 ecbd ffcf 80bd ae44 94bd 77bf f6bd
000000e0: f6b3 7fbd cad5 c1bc 7d8e e9bd 3141 8f3d
000000f0: 7382 b6bd 68e9 513d 1546 03be 705b 4bbd
00000100: 8b54 d6bd a5d3 b33d 48b9 993d 404d a0bc
00000110: 4742 cfbd ec55 2dbe 28b8 1cbe 514b 313c
00000120: 4239 0abe 9d12 953d 159f 00be 75df 91bd
00000130: b00e 2e3d 49e2 e13d 0d73 11be 1820 febc
00000140: 9aec 583d 7d28 013d 8e1e 91bd 61a1 babd
00000150: c405 55be 7e0a 2f3d 90e0 b43d 1554 30bd
00000160: 0444 c0bd d15c f43d 484a 8dbd b747 81bd
00000170: 8435 003d b49d bd3d 854e cbbb 353d 1a3e
00000180: 7385 013c 8f74 6fbe a134 f93b 92d4 c2bd
00000190: 8460 be3d 9c5c e0bd 7f11 abbc 98b7 383e
000001a0: 2c63 6a3d 1ccd 18be 03f7 8cbd 6475 1a3e
000001b0: 6f75 96bd df04 0e3c 15c1 80bd ea4b 02be
000001c0: 2533 02be ae47 38be 0729 7ebc 478e 83bc
000001d0: c833 62be ad99 203e 4748 e8bd 0915 b2bd
000001e0: c9ea b0bc 7686 ed3d 28dd f63d 70dc 6c3d
000001f0: f95f 033e 3837 b2bd 6111 53bd caab b9bd
00000200: 23ae c3bd 8c46 a2bb 2dec 1abc 6737 1dbd
00000210: 401c 303e 8351 b0bd 8718 93bd 31b3 0c3e
00000220: e7cf 043e 135b b93d b58a 52bd 9cc3 2bbe
00000230: 82e7 07be 336e 323d 9ca4 1dbe 5e4d 90bd
00000240: 3484 2abd 6fc7 1cbe 5c43 803d d9c7 a0bb
00000250: a198 113e 058b 193e 9a54 d8bd 06f2 0ebe
00000260: d340 d23d 4d7c 32be d465 6a3c 9ab0 c23d
00000270: 9568 ca3d 2b11 2cbe b64a e6bc dacc 2f3e
00000280: 3b05 80bc 0531 2c3d 7c35 ed3d 79f1 1bbe
00000290: a15e 0b3e b9a0 f4bd 63ff c1bd d875 003d
000002a0: f162 803c e951 0e3e 3dfd 22bd c3d1 8dbd
000002b0: 8591 adbb b381 64bd a820 fbbd 722e 35be
000002c0: 39f8 0a3e c0e5 b1bd d537 423e 7de6 36be
000002d0: c05d 843d 1073 53bc b543 2fbe b51c b2bc
000002e0: bd49 083e 8414 173d 8f37 ecbc 2613 75bd
000002f0: 59f1 233e d3d7 f5bb 4ab2 0dbe 5927 55bc
00000300: 1667 6abd 3fd6 efbd 4586 d73d ca5f 0bbe
00000310: 04b5 d13d b6ae b13d f99c e6bd 7501 ee3d
00000320: a46b b23d 24a9 34be afd8 1cbe b9e3 95bc
00000330: f57c ab3d 01d9 4c3d 2021 dd3d c774 193e
00000340: 86b3 5abd 558e 203e 7ce6 38bc 007c 9f3a
00000350: 1e7e 9ebd d2bb 9d3c 7112 35bd c218 eabd
00000360: 4412 85bd 21b8 193e e11a c63d b97b 6a3d
00000370: 9b22 b83c a138 f8bc 7d48 46be 5990 c6bd
00000380: 3df1 0f3e 222b 203c cdb9 c53d 4dcc c93d
00000390: 74ad 07be b450 233e e99f 263e 0359 da3d
000003a0: 5898 5ebd ae09 283d d430 80bd 9928 b7bd
000003b0: f567 05bd 5349 f3bb 7f60 bebd abc1 2bbe
000003c0: cf9b 1e3e d943 25bd a107 163e c3d2 cd3d
000003d0: a248 da3d 2d45 1fbe c0b8 2abd 88fd 883d
000003e0: 5333 f03d 5c16 b0bd f3c8 d63d f436 3cbe
000003f0: 6bb0 7c3d fdc5 09be eb26 073e c2a3 21be
-0.0016116919 -0.049349524 0.011465879 0.090802535 -0.06882945 -0.20399359 -0.04616966 0.026900645
-0.020559344 0.15861608 0.11305748 0.11353045 0.23634733 -0.01729205 0.14712878 -0.100929335
-0.12435543 -0.16985872 0.048223723 0.0713609 0.16174643 -0.10515625 -0.12828124 0.044959567
0.103035524 0.1383484 -0.11040792 -0.051129468 0.06841084 -0.088294566 -0.050594416 -0.009055773
-0.11223328 0.09605887 0.13329853 -0.24227996 0.021450873 -0.11844095 0.13057391 -0.1024874
0.011348138 0.07110523 -0.13200971 0.13427833 -0.104049325 0.04225574 -0.007260191 -0.06857298
-0.17382549 -0.104911976 0.009631299 0.0372952 -0.115311466 -0.06289672 -0.07239662 -0.12048238
-0.062427483 -0.023661513 -0.114041306 0.06994856 -0.089116 0.051247984 -0.12819703 -0.04964775
-0.10465344 0.08780602 0.07506043 -0.019568086 -0.10120063 -0.16927308 -0.15304625 0.0108211795
-0.13498405 0.07278941 -0.12560685 -0.07122699 0.042494476 0.110294886 -0.14204045 -0.031021163
0.052960016 0.031532753 -0.07085906 -0.09112812 -0.2080298 0.042734616 0.088318944 -0.043048937
-0.09387973 0.11931766 -0.06898934 -0.06312507 0.031301036 0.09258595 -0.0062044286 0.15062411
0.007905352 -0.23384307 0.007605151 -0.09513201 0.09295753 -0.10955164 -0.020882366 0.18038785
0.057223484 -0.14921993 -0.06883051 0.15083843 -0.073466174 0.008668154 -0.062868275 -0.12724271
-0.12714823 -0.17996094 -0.015512711 -0.016059054 -0.22090065 0.15683623 -0.11341911 -0.086954184
-0.02159633 0.11597912 0.12053901 0.057827413 0.1282958 -0.087019384 -0.051530246 -0.09065969
-0.09554698 -0.0049522575 -0.009455723 -0.038382914 0.17198277 -0.08609297 -0.071824126 0.13740231
0.12969933 0.09050574 -0.051401813 -0.16773838 -0.13271907 0.043562125 -0.15394825 -0.070460066
-0.041629985 -0.15310453 0.06262848 -0.004906636 0.1421838 0.14994438 -0.105630115 -0.13959512
0.102662705 -0.1743023 0.014306504 0.0950634 0.09883229 -0.16803424 -0.028111797 0.17167988
-0.015627494 0.042038936 0.11582467 -0.15228833 0.13610317 -0.11944718 -0.09472539 0.031362385
0.015672179 0.13898434 -0.039792288 -0.069247745 -0.0052968883 -0.055787753 -0.12262088 -0.17693499
0.13571252 -0.086863995 0.1896661 -0.17861362 0.06463194 -0.012905851 -0.17115672 -0.021742204
0.13309379 0.0368848 -0.028835086 -0.059832714 0.16010036 -0.007502535 -0.13837543 -0.0130098695
-0.057227217 -0.11710786 0.10523657 -0.1361076 0.10239604 0.086759016 -0.11260409 0.11621372
0.08711937 -0.17642647 -0.15317033 -0.018297063 0.08373443 0.05001164 0.10797334 0.14985953
-0.053393863 0.15679295 -0.0112854205 0.0012167692 -0.07738899 0.019254599 -0.04420704 -0.114305034
-0.064976245 0.15011646 0.096730955 0.057246897 0.022477439 -0.03030044 -0.1936359 -0.09695501
0.14056869 0.009775909 0.09654579 0.098534204 -0.13249761 0.15948755 0.16271938 0.10661509
-0.054344505 0.041024856 -0.06259313 -0.0894329 -0.032569844 -0.0074245124 -0.09295749 -0.16773097
0.15489124 -0.040347908 0.14651348 0.10049965 0.10658385 -0.15553732 -0.041680098 0.06688982
0.11728539 -0.08598015 0.10487547 -0.18380338 0.061691683 -0.13454433 0.1319844 -0.15785125

bias f4 [10]
00000000: d8f8 09be 5527 67bc cb4a a4bd 21d3 553d
00000010: ca1b 88bd e13a 0a3d 2928 abbc 3735 cf3d
00000020: 77a7 0dbe 727e 473d
-0.13473833 -0.014108499 -0.08022078 0.0522033 -0.06645925 0.033747558 -0.020893173 0.10117572
-0.13833414 0.048704572
